Reinforcement Learning/Value Base Methods/checkpoint.pth (torch_old, 28333 bytes, 6 tensors)

fc1.weight f4 [64, 37]
-0.21115476 -0.013446485 0.112137586 -0.19874883 -0.0528531 0.105524234 -0.17582607 -0.31170213
-0.113192976 -0.19014403 -0.231622 0.027381958 -0.03403707 -0.07679497 -0.049950257 -0.07044513
-0.054855384 -0.08518487 -0.005101215 -0.0061801383 0.02945497 0.048522327 0.027626773 0.2226354
-0.22866814 -0.16509682 0.19933882 0.054553844 -0.15925784 0.12482247 -0.042101357 0.00043774146
0.25160477 0.025515147 0.05524767 0.033366796 -0.053295653 -0.13394478 -0.22164181 -0.030201823
0.016055511 0.030240063 0.06374362 0.006184418 -0.24589469 0.07965062 -0.002494737 0.03227258
-0.018310023 0.055166848 0.0060259732 0.27088177 -0.040001858 -0.11139619 -0.017467732 -0.11700745
0.117699005 0.23491007 -0.22649243 -0.24262314 -0.05799935 0.040628877 -0.19489725 -0.30376148
-0.12083349 0.069084935 -0.0077434853 -0.16422659 -0.06552197 -0.06322152 0.17258702 0.087063454
0.07561956 -0.09017511 0.079550564 -0.03625363 -0.09367401 0.09703573 0.04231371 0.053209532
-0.047846194 0.110387206 0.02949659 0.14009799 -0.08665511 0.021276688 0.01112253 -0.12036764
-0.00064635056 0.0745104 -0.22964111 0.060613293 0.23487851 0.13279536 0.024593491 -0.17748383
0.12162271 0.1464651 0.5045569 0.047958747 0.19769467 -0.14313348 -0.22686534 -0.12965928
-0.04942438 0.018715687 0.06294573 0.05213279 0.13823903 0.052736893 0.012877291 -0.010340379
0.15145725 -0.025041807 -0.15539783 -0.0085961735 -0.13276471 0.15439232 0.14166948 -0.07850634
-0.89404374 0.05447467 0.16475587 0.10785613 -0.043505117 -0.14905311 0.18684359 0.14325352
-0.018543322 -0.079990104 -0.22841753 0.016056707 0.07239773 0.0002491224 -0.25980002 -0.5704136
0.17258452 0.0839753 -0.05118684 -0.3122934 -0.49177366 0.02790686 -0.034552235 0.18591665
0.010600709 -1.0630646 -0.027544592 0.0058747986 -0.42060754 -0.12668076 -0.017023766 0.043683082
-0.17655024 -0.067566775 0.040605385 0.15913083 0.064368665 -0.09928449 0.038962968 -0.32076454
0.027790686 0.08960711 0.031339508 0.055119008 0.28826424 -0.16644768 0.14670585 0.17085527
0.10589087 -0.10353914 -0.08501427 0.18208104 0.09397011 -0.010645143 -0.04164075 -0.20016083
-0.06265753 -0.16266936 0.103441514 0.014767644 -0.2087093 0.17735586 -0.107041396 -0.06484325
-0.034579337 0.4458835 -0.3315699 -0.23402956 -0.26305515 -1.6175203 -0.045793276 -0.028808257
-0.013548243 0.101383775 0.09982771 -0.019631041 -0.0055934736 0.025377274 0.062490813 0.09212723
-0.049825486 0.032488894 0.0045353337 0.02955624 0.08216515 0.027503286 0.027738318 0.02340388
0.021451512 -0.07727264 -0.021798395 0.04247433 0.025076143 0.10528366 -0.03642871 -0.00394954
-0.01892671 -0.027465142 -0.007264174 0.03375096 -0.012612432 0.0055069253 -0.21267472 0.108896054
0.0044510467 0.11065518 0.273553 -0.13516697 0.08990802 -0.08215327 0.09294293 -0.05608413
-0.20122735 0.0021824033 0.02637609 -0.20463195 0.02138669 -0.004453083 -0.22922345 0.036992904
0.039422914 -0.19918145 -0.06478717 -0.115067884 0.05547738 0.17110829 0.17177618 0.23459241
-0.14728822 -0.1556841 -0.19918434 -0.75535077 0.017237471 0.018518649 0.045943007 -0.11995958
00000000: f438 58be a54e 5cbc 64a8 e53d d084 4bbe
00000010: 7e7c 58bd 171d d83d c00b 34be 6c97 9fbe
00000020: b8d1 e7bd 1eb5 42be 512e 6dbe 2150 e03c
00000030: 746a 0bbd ae46 9dbd a498 4cbd 8945 90bd
00000040: 0ab0 60bd 6875 aebd 1828 a7bb c282 cabb
00000050: 8d4b f13c 59bf 463d 8b51 e23c 89fa 633e
00000060: fb27 6abe 240f 29be 7a1f 4c3e da73 5f3d
00000070: 7d14 23be eca2 ff3d 7972 2cbd aa80 e539
00000080: 57d2 803e 2405 d13c 614b 623d 9fab 083d
00000090: 8b4c 5abd d228 09be 12f6 62be d069 f7bc
000000a0: d986 833c 02ba f73c 048c 823d a9a6 ca3b
000000b0: d1cb 7bbe dd1f a33d be7e 23bb 4130 043d
000000c0: e7fe 95bc a2f6 613d 8775 c53b 04b1 8a3e
000000d0: fdd8 23bd b023 e4bd 7d18 8fbc 9aa1 efbd
000000e0: 2d0c f13d 448c 703e a2ed 67be 3372 78be
000000f0: ba90 6dbd 776a 263d 2593 47be a086 9bbe
00000100: 8c77 f7bd 677c 8d3d 10bd fdbb 042b 28be
00000110: 6230 86bd 497a 81bd a7ba 303e 534e b23d
00000120: 6ede 9a3d baad b8bd 68eb a23d b07e 14bd
00000130: 29d8 bfbd abba c63d 2451 2d3d 3df2 593d
00000140: 5ffa 43bd b012 e23d d5a2 f13c d975 0f3e
00000150: 3c78 b1bd 734c ae3c 463b 363c 4f83 f6bd
00000160: da6f 29ba e998 983d 0a27 6bbe a545 783d
00000170: fe83 703e 82fb 073e 4a78 c93c 52be 35be
00000180: 5415 f93d f2fa 153e a42a 013f 6470 443d
00000190: 7970 4a3e 9591 12be 634f 68be 67c5 04be
000001a0: 3871 4abd a451 993c b1e9 803d 3189 553d
000001b0: 888e 0d3e a402 583d 46fb 523c b16a 29bc
000001c0: 9c17 1b3e 7a24 cdbc 9c20 1fbe f7d6 0cbc
000001d0: 79f3 07be 0519 1e3e ce11 113e efc7 a0bd
000001e0: 0de0 64bf d520 5f3d c3b5 283e ade3 dc3d
000001f0: 6c32 32bd 61a1 18be ed53 3f3e 0db1 123e
00000200: 2ae8 97bc dad1 a3bd 49e6 69be 5b89 833c
00000210: 4345 943d a49c 8239 8204 85be a006 12bf
00000220: ffb9 303e 3efb ab3d 4ba9 51bd ece4 9fbe
00000230: c2c9 fbbe ed9c e43c a586 0dbd ef60 3e3e
00000240: 99ae 2d3c 8012 88bf 32a5 e1bc 6281 c03b
00000250: df59 d7be 9ab8 01be 6d75 8bbc 08ed 323d
00000260: 96c9 34be 7360 8abd d551 263d 31f3 223e
00000270: b8d3 833d ab55 cbbd a297 1f3d 403b a4be
00000280: 4ba9 e33c ef83 b73d db5d 003d 78c4 613d
00000290: 5f97 933e 4371 2abe 0f3a 163e aff4 2e3e
000002a0: 50dd d83d 540c d4bd f61b aebd 7473 3a3e
000002b0: 6773 c03d f768 2ebc 7e8f 2abd f6f6 4cbe
000002c0: 9752 80bd cc92 26be 25d9 d33d fdf3 713c
000002d0: e4b7 55be c69c 353e 8538 dbbd 8acc 84bd
000002e0: 10a3 0dbd d84a e43e 88c3 a9be 72a5 6fbe
000002f0: 2aaf 86be e80a cfbf bb91 3bbd 4bff ebbc
00000300: 73f9 5dbc 4ca2 cf3d 7872 cc3d 47d1 a0bc
00000310: 7549 b7bb 00e4 cf3c 5ef6 7f3d 33ad bc3d
00000320: cf15 4cbd 1313 053d 239d 943b ee1f f23c
00000330: 3446 a83d 924e e13c 783b e33c 7eb9 bf3c
00000340: 15bb af3c 1e41 9ebd 8c92 b2bc 90f9 2d3d
00000350: 7c6c cd3c f69e d73d 4536 15bd 256b 81bb
00000360: 300c 9bbc 94fe e0bc 4f08 eebb 723e 0a3d
00000370: 60a4 4ebc 7073 b43b 67c7 59be e504 df3d
00000380: 16da 913b 2f9f e23d 240f 8c3e 3669 0abe
00000390: b221 b83d f93f a8bd dd58 be3d 79b8 65bd
000003a0: 8b0e 4ebe a706 0f3b ab12 d83c 0a8b 51be
000003b0: 2433 af3c 2beb 91bb 8db9 6abe df85 173d
000003c0: ec79 213d 39f6 4bbe 23af 84bd b6a8 ebbd
000003d0: 403c 633d 0337 2f3e 18e6 2f3e fe38 703e
000003e0: b9d2 16be a76b 1fbe fbf6 4bbe ab5e 41bf
000003f0: 9935 8d3c 6cb4 973c bc2e 3c3d 5ead f5bd

fc1.bias f4 [64]
0.09456385 -0.1756731 -0.16768724 -0.086136825 -0.00810013 -0.047539026 0.0093512675 -0.12959202
0.0036101635 -0.0694467 0.07211491 -0.061476592 0.14049484 -0.07966056 -0.019927967 0.12741895
-0.0050303363 -0.07874416 4.1081683e-05 -0.105242684 0.07339286 0.07162279 0.008781073 0.096843444
-0.1635049 0.096424356 -0.037724484 -0.07474464 0.014127233 0.14109136 0.05604637 0.05811211
0.008343326 0.016561361 -0.04947006 -0.118502095 -0.0014538259 -0.15821616 -0.028447201 0.15557952
0.16486153 -0.009573801 0.16094586 0.2536153 0.1803024 0.119843654 0.15199797 0.09639979
0.015993936 -0.10547146 -0.076723866 -0.09131335 0.22534963 0.07807894 -0.06275221 -0.12632282
0.13081683 0.0042171795 -0.053415965 0.18258467 0.048050944 0.0010710179 0.075493686 0.08640966
00000000: b1aa c13d a6e3 33be 34b6 2bbe 8168 b0bd
00000010: 68b6 04bc 48b8 42bd 0f36 193c c5b3 04be
00000020: 7e98 6c3b 123a 8ebd fbb0 933d e1ce 7bbd
00000030: e1dd 0f3e 1325 a3bd fa3f a3bc 1d7a 023e
00000040: 85d5 a4bb 9e44 a1bd 1f4f 2c38 7a89 d7bd
00000050: ff4e 963d f8ae 923d 7dde 0f3c db55 c63d
00000060: d46d 27be 227a c53d fd84 1abd b813 99bd
00000070: e975 673c 417a 103e e190 653d f706 6e3d
00000080: 72b2 083c b1ab 873c 1ea1 4abd 3ab1 f2bd
00000090: 4d8e beba 6b03 22be 1b0a e9bc 3d50 1f3e
000000a0: 76d1 283e 6fdb 1cbc fece 243e ddd9 813e
000000b0: 31a1 383e 9770 f53d 5ba5 1b3e 416d c53d
000000c0: b705 833c 6c01 d8bd 6721 9dbd 7e02 bbbd
000000d0: 0ec2 663e dae7 9f3d 3b84 80bd c55a 01be
000000e0: d9f4 053e 4430 8a3b b3ca 5abd 7af7 3a3e
000000f0: 11d1 443d 6661 8c3a 6f9c 9a3d 8cf7 b03d

fc2.weight f4 [64, 64]
-0.2390356 0.103622824 -0.1665651 0.24879907 -0.048975233 -0.46636635 -0.24528451 -0.08421568
-0.14842503 -0.15230347 -0.16861951 0.038053203 0.3137978 -0.13663244 -0.30213276 -0.064519815
0.0057457243 0.020286998 0.10668496 0.07163538 0.15485245 0.11264273 0.29014635 0.09244919
-0.16563645 -0.061288934 0.012855808 0.098945044 -0.22081977 -0.35131106 -0.13443133 0.023398325
0.30173284 0.09640889 0.012698571 -0.3243963 -0.0568146 -0.6388879 0.17142615 -0.08434315
-0.004532748 -0.7199348 -0.28923997 -0.01135949 -0.26214772 -0.4572152 -0.34901258 -0.60374236
-0.47090858 -0.18925892 -0.1868905 -0.15573701 -0.017386932 -0.123267844 -0.21630584 0.04862541
-0.2947793 0.19882526 0.29705775 -0.34820667 -0.08101885 -0.15498227 0.1551493 0.0057294406
-0.0064579146 0.02474641 0.07482661 -0.022650205 0.013971925 0.06340395 0.04803631 0.013538475
0.37181693 -0.023610013 0.2037234 0.10865677 -0.16086689 0.2571664 -0.041750215 -0.08515522
0.08703391 0.0059789764 -0.19243956 0.23414017 -0.34668204 0.10399081 -0.016404908 0.22440498
0.10495092 -0.53434896 -0.2411815 0.09908169 0.114740126 0.04285022 0.033564154 -0.08888506
0.046417277 0.07177893 0.13463214 -0.11116315 -0.44400507 -0.07028627 0.049624838 0.056984913
0.04124045 -0.029510109 0.0039159246 0.093451135 -0.43390095 0.09679461 -0.1272781 -0.13482955
-0.12420182 -0.06601875 0.08112011 -0.106024995 -0.0019284937 0.05744056 0.041174904 0.06382523
-0.049307857 -0.053332906 -0.15291609 0.06675606 -0.16538316 0.09784235 0.026569702 -0.0030154309
0.06752269 0.09987035 -0.3298821 0.3523093 0.2199628 -0.08766926 0.057506718 -0.1482438
0.28796375 0.0040114284 0.12628093 -0.03378182 -0.26758835 -0.06998254 0.0099019185 0.10896913
0.31181267 -0.18618515 -0.05575465 0.30125946 0.119512394 -0.24144728 0.020055268 -0.24710481
-0.060261764 0.13049713 0.048637126 -0.00083646347 0.06313778 0.09628694 0.09099996 0.07346827
0.122112855 -0.14706284 0.23322853 0.1447424 0.08214556 -0.027119227 -0.033465363 -0.10868575
-0.17735079 -0.10507915 0.07405084 -0.054453403 0.2506889 -0.17334758 -0.01930199 0.0098439185
-0.016299063 -0.23507872 -0.17638703 0.040185913 -0.008544807 -0.026741346 -0.027799852 0.04637304
0.011535569 0.09497519 -0.14658965 -0.33732718 -0.112487696 -0.10393823 0.00022301244 0.16415796
-0.004719758 -0.07529774 -0.08820219 0.060117975 -0.121229954 0.18661836 0.02599017 0.003867276
-0.079947814 -0.035887096 -0.028395757 -0.094357684 0.16108055 -0.17462668 0.21486743 0.10577825
0.069666415 -0.033589054 -0.22160992 0.15062104 -0.0349041 -0.07453521 0.12569393 -0.13456714
-0.1087842 0.19273418 -0.27450976 0.035814106 -0.11564726 -0.101955764 -0.16272508 0.047419343
-0.004758527 0.013489315 -0.008342099 0.060511757 0.27005813 0.037115324 0.10056286 0.048248168
0.026915113 -0.034051675 -0.0595938 0.12261245 0.1132135 0.05290905 0.19717915 -0.021671303
-0.0063308603 -0.09819824 -0.009288652 -0.11786552 0.00091202074 0.031042011 -0.05317773 -0.02843752
0.17110074 0.042424027 -0.13270578 -0.16148901 -0.17742088 -0.11313134 -0.073350914 -0.009155799
00000000: c0c5 74be 3438 d43d 0b90 2abe 2fc5 7e3e
00000010: 419a 48bd 92c7 eebe dd2b 7bbe 4579 acbd
00000020: bbfc 17be 71f5 1bbe 98aa 2cbe addd 1b3d
00000030: 1baa a03e 60e9 0bbe 25b1 9abe f722 84bd
00000040: a146 bc3b eb30 a63c a57d da3d 92b5 923d
00000050: a491 1e3e 3bb1 e63d 108e 943e 0056 bd3d
00000060: 9a9c 29be 1b0a 7bbd 2ba1 523c b3a3 ca3d
00000070: 941e 62be 0bdf b3be 5ea8 09be d8ad bf3c
00000080: ba7c 9a3e 0672 c53d ab0d 503c 4617 a6be
00000090: 6db6 68bd 288e 23bf 568a 2f3e 1abc acbd
000000a0: 7287 94bb a64d 38bf 4317 94be 281d 3abc
000000b0: 3a38 86be 1c18 eabe c7b1 b2be dc8e 1abf
000000c0: ee1a f1be 17cd 41be 3960 3fbe 8679 1fbe
000000d0: 0a6f 8ebc da73 fcbd 477f 5dbe 702b 473d
000000e0: 50ed 96be d998 4b3e f417 983e 2548 b2be
000000f0: 36ed a5bd acb3 1ebe 75df 1e3e 08be bb3b
00000100: ea9c d3bb fcb8 ca3c b23e 993d ec8c b9bc
00000110: 80ea 643c eed9 813d b9c1 443d 7bd0 5d3c
00000120: ca5e be3e c969 c1bc de9c 503e 7187 de3d
00000130: 4aba 24be 50ab 833e 4602 2bbd dc65 aebd
00000140: d63e b23d 4aeb c33b e00e 45be 71c2 6f3e
00000150: 4f80 b1be 22f9 d43d 9663 86bc 6bca 653e
00000160: 82f0 d63d 18cb 08bf 48f8 76be 57eb ca3d
00000170: dffc ea3d b683 2f3d 917a 093d 5f09 b6bd
00000180: 0b20 3e3d d500 933d 02dd 093e 81a9 e3bd
00000190: a254 e3be 3ff2 8fbd 6a43 4b3d 0369 693d
000001a0: bfeb 283d 2fbf f1bc 2851 803b 4f63 bf3d
000001b0: 4428 debe 413c c63d 3155 02be c210 0abe
000001c0: 865d febd d734 87bd 4d22 a63d a223 d9bd
000001d0: 83c5 fcba cb46 6b3d 04a7 283d cdb6 823d
000001e0: 09f7 49bd 9b73 5abd 0996 1cbe 67b7 883d
000001f0: 345a 29be 9261 c83d b4a8 d93c 899e 45bb
00000200: 5649 8a3d d388 cc3d 4ee6 a8be e261 b43e
00000210: ee3d 613e f18b b3bd 2a8c 6b3d 39cd 17be
00000220: fc6f 933e 4d72 833b ca4f 013e ce5e 0abd
00000230: 5701 89be 0253 8fbd a83b 223c 352b df3d
00000240: e9a5 9f3e 52a7 3ebe fd5e 64bd ae3e 9a3e
00000250: eac2 f43d f53d 77be f24a a43c 0b09 7dbe
00000260: 0ad5 76bd 0aa1 053e b937 473d 1d46 5bba
00000270: 614e 813d 1632 c53d 305e ba3d 8876 963d
00000280: 4e16 fa3d a497 16be 76d3 6e3e 5a37 143e
00000290: ee3b a83d 2429 debc fa12 09bd a296 debd
000002a0: 729b 35be bd33 d7bd f8a7 973d 880a 5fbd
000002b0: 4c5a 803e 0782 31be 351f 9ebc 6348 213c
000002c0: 9d85 85bc 7ab8 70be cd9e 34be fc99 243d
000002d0: 85ff 0bbc ab10 dbbc 84bc e3bc a8f1 3d3d
000002e0: afff 3c3c 5a82 c23d 991b 16be 26b6 acbe
000002f0: f35f e6bd 91dd d4bd 72d8 6939 0619 283e
00000300: 33a8 9abb b435 9abd 5aa3 b4bd 443e 763d
00000310: 6947 f8bd e218 3f3e 56e9 d43c 2072 7d3b
00000320: aebb a3bd 59fe 12bd 389e e8bc 9a3e c1bd
00000330: 4df2 243e 56d1 32be 3506 5c3e 44a2 d83d
00000340: 44ad 8e3d ad94 09bd b6ed 62be 673c 1a3e
00000350: 9af7 0ebd eba5 98bd e9b5 003e f8cb 09be
00000360: 40ca debd 1c5c 453e 8b8c 8cbe d0b1 123d
00000370: 78d8 ecbd 2fce d0bd 67a1 26be c93a 423d
00000380: 6bed 9bbb 4a02 5d3c 4dad 08bc 2ddb 773d
00000390: 0f45 8a3e 3d06 183d e7f3 cd3d df9f 453d
000003a0: 157d dc3c c579 0bbd a118 74bd 3c1c fb3d
000003b0: 7bdc e73d 29b7 583d 55e9 493e 0488 b1bc
000003c0: 1b73 cfbb 291c c9bd 6e2f 18bc 7a63 f1bd
000003d0: ad14 6f3a d14b fe3c e4d0 59bd cdf5 e8bc
000003e0: 0835 2f3e d1c4 2d3d 06e4 07be 605d 25be
000003f0: d2ad 35be 67b1 e7bd 0139 96bd 3402 16bc

fc2.bias f4 [64]
0.027702859 0.23645248 -0.015287173 0.14756595 0.16615222 -0.056754697 0.24873304 0.32001305
-0.029508954 -0.015959386 0.16859479 -0.18144476 -0.118439056 -0.056278463 0.06762889 0.10974612
0.1432768 0.00911204 0.0025584109 -0.052144025 0.13080709 0.07479669 0.18084118 -0.15339732
-0.08702886 0.004424452 0.030522926 0.10810627 0.042711906 -0.046470966 -0.037162315 -0.051790737
0.0005047308 0.43635318 -0.11913025 -0.09608456 0.03287805 0.35973832 -0.010648611 -0.12165163
-0.026224533 0.4223401 0.036601845 -0.03922207 -0.04394174 0.089372925 -0.08430578 0.05664713
0.02893441 0.17279318 -0.11848423 0.076134995 -0.080632605 0.45205 0.059014626 -0.12874287
-0.0946421 -0.10792521 0.1256034 -0.1597258 -0.14789656 0.22000252 -0.041398395 0.25531137
00000000: 1bf1 e23c 9920 723e 0d77 7abc 871b 173e
00000010: cf23 2a3e 9d77 68bd e0b3 7e3e c0d8 a33e
00000020: c3bc f1bc 42bd 82bc 1da4 2c3e a8cc 39be
00000030: 2d90 f2bd 3f84 66bd 0481 8a3d 93c2 e03d
00000040: 27b7 123e aa4a 153c 03ab 273b f994 55bd
00000050: 4bf2 053e 022f 993d 6e2e 393e 3014 1dbe
00000060: 303c b2bd fefa 903b 370b fa3c d266 dd3d
00000070: aef2 2e3d 5758 3ebd 8337 18bd 8622 54bd
00000080: e94f 043a af69 df3e 8ffa f3bd fbc7 c4bd
00000090: 22ab 063d 9f2f b83e 8377 2ebc 7d24 f9bd
000000a0: d5d4 d6bc f63c d83e d1eb 153d 52a7 20bd
000000b0: 41fc 33bd 2709 b73d 82a8 acbd d206 683d
000000c0: db07 ed3c b2f0 303e dca7 f2bd aaec 9b3d
000000d0: b522 a5bd 1973 e73e 52b9 713d 2cd5 03be
000000e0: b8d3 c1bd e407 ddbd 2d9e 003e 298f 23be
000000f0: 3272 17be 5748 613e 5d91 29bd 2cb8 823e

fc3.weight f4 [4, 64]
-0.027421733 -0.12098109 0.09713488 0.1287906 0.13518417 -0.0590568 0.06786745 0.16713804
0.069332756 -0.17919639 0.12695676 0.12769113 -0.1370582 0.0074294154 -0.094811134 0.32254842
0.15631472 0.25843555 -0.21408276 -0.49369767 -0.17923117 0.47363237 -0.17717923 -0.18607105
-0.20839514 -0.2672039 -0.4363063 0.4145518 -0.01617012 0.29796445 0.48055485 0.04988443
0.08485013 0.15807766 0.19501999 0.2123179 0.012209246 0.18793783 -0.009812771 0.04994371
0.10227067 0.19583765 -0.58377236 -0.15835199 0.14694937 0.037775703 0.14482103 0.27240968
0.08081664 0.12822837 -0.08130756 -0.11570196 0.222012 0.22699717 0.39804167 -0.15784518
0.038114347 0.008447438 -0.0526551 -0.14802405 0.061445925 0.13300474 0.42076412 0.040777784
0.340554 0.018718962 0.13388625 0.15167275 0.23412351 0.06954928 0.087975405 0.19380526
0.10310628 0.039163787 0.10362674 -0.27287537 -0.06614504 -0.0058997455 0.019671137 0.26661485
0.14148693 0.39006516 -0.085049294 -0.033751108 0.007270875 0.44869852 -0.5022224 -0.2719542
-0.20829341 0.41940153 -0.47508553 0.35516077 -0.040557146 0.2906765 0.23969571 0.13348663
0.046136424 0.10690275 -0.16715738 0.31079546 0.10059596 0.18876645 0.06783158 -0.09064535
-0.2756065 0.21573186 -0.031784765 -0.059487745 -0.0017984075 -0.055860903 0.2347461 0.210013
0.027655529 0.17793038 -0.22636394 -0.05400421 0.49975184 0.18676291 0.36470762 0.07247009
0.015040908 -0.0051866965 0.021964818 -0.15490302 0.012865324 0.14456524 0.5696881 0.08543506
0.2125329 0.22069088 0.025827011 0.050842855 0.47398508 0.15284926 0.13630843 0.060882404
-0.5389297 -0.03361662 0.1168716 -0.20509146 0.070249826 -0.15972464 -0.39550033 0.33901453
0.21455976 0.28747258 -0.046530925 -0.12571895 0.19296983 -0.029604355 0.49187496 -0.024434054
-0.20736574 -0.1732638 -0.045113523 0.2877679 -0.22315718 0.27633262 0.39403087 0.47278467
-0.030434875 0.17708275 -0.14181955 0.11697256 0.14007156 0.21705584 -0.061589483 0.037359454
-0.34004098 0.19965872 -0.21400203 -0.026174217 -0.21360886 0.18602337 0.12996215 0.08388741
0.21111585 0.17767426 -0.14808023 -0.13457598 0.50547004 0.20801078 0.41337407 -0.4954029
-0.37399125 0.29616252 0.07629175 -0.2117905 -0.20013408 0.24016991 0.4531618 0.06346958
-0.29171863 0.1466111 -0.12058108 0.11309633 0.12186481 -0.09545843 0.1279804 0.2153853
0.4102779 0.19006059 0.06171 -0.26206437 -0.094174035 0.2109819 -0.0007518962 0.22460395
0.18282865 0.15994373 -0.1526451 0.099306874 -0.007996311 0.2937174 0.17629167 -0.1827582
-0.26458487 -0.06332225 -0.23440784 0.30605426 -0.17740452 -0.016302394 0.17923553 0.06586213
-0.03589458 0.18330985 0.20303847 0.60893536 0.2234248 0.3800846 0.04705916 -0.09920975
0.20567724 0.20042533 -0.21893388 -0.15264982 0.37656018 0.16277291 0.4288405 -0.011773053
0.19135495 0.14727244 -0.18365921 -0.37143016 0.049407665 0.15861899 0.6494889 -0.026228376
-0.33787635 0.27163497 0.11540589 -0.009965101 -0.19563773 0.17438477 0.37102333 0.12126627
00000000: 8ba3 e0bc efc4 f7bd a7ee c63d afe1 033e
00000010: b86d 0a3e 8be5 71bd 17fe 8a3d 3c26 2b3e
00000020: 55fe 8d3d 427f 37be f400 023e 77c1 023e
00000030: fc58 0cbe 7472 f33b 572c c2bd 1125 a53e
00000040: f710 203e aa51 843e 8338 5bbe f1c5 fcbe
00000050: 6088 37be f17f f23e 796e 35be 6989 3ebe
00000060: 8965 55be f3ce 88be 8a63 dfbe 2240 d43e
00000070: 3377 84bc cc8e 983e 490b f63e 9e53 4c3d
00000080: e8c5 ad3d 1cdf 213e 52b3 473e dd69 593e
00000090: 4a09 483c c672 403e bfc5 20bc c791 4c3d
000000a0: 4973 d13d aa89 483e 1b72 15bf 0627 22be
000000b0: e579 163e b2ba 1a3d f74b 143e 4879 8b3e
000000c0: 3283 a53d 4c4e 033e 9484 a6bd 26f5 ecbd
000000d0: 1d57 633e f271 683e 1ecc cb3e 2ba2 21be
000000e0: ca1d 1c3d 1f67 0a3c e0ac 57bd 9e93 17be
000000f0: b9ae 7b3d 6532 083e 656e d73e 9b06 273d
00000100: 185d ae3e 8258 993c 7a19 093e 1a50 1b3e
00000110: 13be 6f3e da6f 8e3d 732c b43d e374 463e
00000120: 6329 d33d 356a 203d 423a d43d 52b6 8bbe
00000130: 0d77 87bd a752 c1bb 5d25 a13c be81 883e
00000140: f3e1 103e 9fb6 c73e 532e aebd 9a3e 0abd
00000150: 8540 ee3b d0bb e53e a691 00bf 953d 8bbe
00000160: de4a 55be ccbb d63e 693e f3be a2d7 b53e
00000170: 401f 26bd 8dd3 943e cb72 753e b8b0 083e
00000180: 8cf9 3c3d d4ef da3d 4e2b 2bbe 9520 9f3e
00000190: 4105 ce3d fe4b 413e 49eb 8a3d 45a4 b9bd
000001a0: 4c1c 8dbe d0e8 5c3e be30 02bd 6ca9 73bd
000001b0: 8bb8 ebba 67ce 64bd 4861 703e a60d 573e
000001c0: d98d e23c 6233 363e f3cb 67be 8533 5dbd
000001d0: 79df ff3e c73e 3f3e f5ba ba3e 336b 943d
000001e0: 246e 763c 2af5 a9bb 90ef b33c e69e 1ebe
000001f0: 14c9 523c e908 143e 14d7 113f 94f8 ae3d
00000200: 39a2 593e cafc 613e 2b93 d33c 9940 503d
00000210: 2cae f23e 8484 1c3e 7094 0b3e d45f 793d
00000220: 4cf7 09bf 95b1 09bd 615a ef3d 7f03 52be
00000230: 24df 8f3d db8e 23be 057f cabe 5093 ad3e
00000240: 8eb5 5b3e 9b2f 933e 3697 3ebd 78bc 00be
00000250: e299 453e d584 f2bc 09d7 fb3e ed29 c8bc
00000260: af57 54be 116c 31be f5c8 38bd 5056 933e
00000270: 5183 64be 787b 8d3e 6abe c93e d510 f23e
00000280: 8f52 f9bc 2e55 353e 2539 11be 4f8f ef3d
00000290: eb6e 0f3e e343 5e3e 4145 7cbd 3a06 193d
000002a0: da19 aebe 5673 4c3e 5923 5bbe 506b d6bc
000002b0: 48bc 5abe e97c 3e3e cc14 053e 2acd ab3d
000002c0: c12e 583e 3ef0 353e 58a2 17be 49ce 09be
000002d0: 7c66 013f c700 553e c4a5 d33e 73a5 fdbe
000002e0: c87b bfbe 9da2 973e d93e 9c3d 9cdf 58be
000002f0: f3ef 4cbe 1aef 753e d304 e83e 57fc 813d
00000300: 255c 95be 3821 163e 37f3 f6bd 0c9f e73d
00000310: 4294 f93d b67f c3bd 4b0d 033e f78d 5c3e
00000320: f20f d23e 3e9f 423e a0c3 7c3d 4d2d 86be
00000330: 51de c0bd a40b 583e e61a 45ba 94fe 653e
00000340: 6f37 3b3e 4ac8 233e ff4e 1cbe 6761 cb3d
00000350: f602 03bc 2162 963e ce85 343e f724 3bbe
00000360: ab77 87be 19af 81bd 9c08 70be 25b3 9c3e
00000370: 88a9 35be 998c 85bc 8589 373e b9e2 863d
00000380: 3206 13bd 94b5 3b3e 51e9 4f3e 30e3 1b3f
00000390: 79c9 643e 739a c23e 1bc1 403d 7b2e cbbd
000003a0: 0e9d 523e 4c3c 4d3e 3430 60be 3c50 1cbe
000003b0: 7fcc c03e f1ad 263e fb90 db3e c3e3 40bc
000003c0: 8df2 433e 96ce 163e 2911 3cbe 182c bebe
000003d0: b15f 4a3d 046d 223e e844 263f e4dc d6bc
000003e0: 21fe acbe bd13 8b3e ec59 ec3d aa44 23bc
000003f0: 4255 48be ec91 323e c5f6 bd3e 735a f83d

fc3.bias f4 [4]
0.38020542 0.23778604 0.22893156 0.15291372
00000000: 49aa c23e 2f7e 733e 096d 6a3e 6a95 1c3e
